Code/DNAX/CVT/data.pth (torch, 4511 bytes, 6 tensors)

l1.weight f4 [8, 37]
00000000: 74e8 8abe 578f 823e f4ce e1bd 11ba c33e
00000010: 97ca 533f 1dfe 81bd 8640 fc3e 9f72 8f3e
00000020: fcab 24be 9ab1 3b3d fd8c f03e d136 273f
00000030: e1f0 0e3f 886d 7ebe 5446 fc3e fc3a 093f
00000040: cb6d d13e d4ce 903d 6a1e 7e3d c7a0 843d
00000050: 7377 543d 0535 003f 00d0 1abe 6a66 ca3d
00000060: 6f66 84be 5e03 353e 33a2 adbd 8de8 953e
00000070: 478b c03d bc51 29bf 4973 723e 7c6e 02bf
00000080: 41f5 babd 5d15 ac3c dcdc 4abe ad3d 9fbd
00000090: d68d 423d f918 0f3f ed02 283f 33c5 90be
000000a0: 8ddf 54be be96 10bf 4f9b a63c 14bc 5f3d
000000b0: 82cb 233e 48ac ca3d 4737 4e3e 33b4 33be
000000c0: c0dc 28bf 1cd7 9ebe c79d f53e 53f4 a9be
000000d0: c74a 82be e93e 003d cfd5 493e 6891 2e3e
000000e0: f7bc 553f 94ee c93d 824c debe d1aa 1fbe
000000f0: d566 d03e d68e 58bd 171f e13e 0f6e 64be
00000100: 3b80 28bf b1bb 443e eab2 de3d f356 dc3e
00000110: 7bab 863f 3739 0e3f 9c86 d7bc f0e6 4cbf
00000120: c5f0 433e a8ee 023f 2262 ce3d 3553 aa3e
00000130: 2d87 9b3e 67d8 143c 9a56 c4be 28fd 723e
00000140: 8152 97be 053b a63e 6f9a 983e 54d7 cc3e
00000150: 0da0 64be 4234 9cbe 13cb 0ebf 30b6 0a3e
00000160: 25e9 08bf 1ed0 0cbf 438c 5fbe 3b99 963e
00000170: ba2a 233f bcff 463f 9513 ce3e 8cbb bfbd
00000180: ec27 723e add8 813d 9a60 063d ab70 bb3e
00000190: 98da 573e c1a8 c5bc d4a1 173e f0ba 813f
000001a0: 4129 963e c0fb 863e 8fd1 7f3e 4909 793d
000001b0: 13c3 ee3e e933 de3e 3f4a b2bc d342 f7bd
000001c0: d706 bc3e 9a59 2cbe eaa2 503e c827 09bf
000001d0: c7ea bf3d 208a cd3e fac0 203e 62fd 963d
000001e0: 2b68 8f3e b96d 613e 5737 09bf 4de0 1f3f
000001f0: 8c41 e3bc 5f6a 2f3f 0a2f 373f 2a2f ad3e
00000200: ad24 b13d 7e0b 36be ddc3 3e3f 6c59 d53d
00000210: 1196 91be 6bd0 1fbe 8241 3cbe 98d4 03bb
00000220: ff73 923e aecb 12be 532b cebe 7ec8 a73e
00000230: a530 09bf ffb6 a03e 6bd8 f6be c7b9 97be
00000240: cae7 19be 54bf 453f d0e5 8c3c fdba 1a3e
00000250: bc26 f43e ff66 583d 87df c83d f90f 0e3e
00000260: 7e5c 593f dec0 053e 6e37 ca3e 5a80 78be
00000270: 708f aa3d 8ed3 96be fe63 f73e b668 643f
00000280: 7d52 0c3f 44ef db3e f4b8 133f aac8 f83e
00000290: a0da bd3e de36 753d c5ef 993d 0586 40bf
000002a0: b040 84be 2ee4 f13e da0a 8c3e 25cb ec3e
000002b0: cab4 59be 1f3d afbd 4d5d 95be b140 183f
000002c0: dd62 1ebe 78f6 68be f71e c7be a6d6 2c3f
000002d0: 15f5 df3e bb2d 8fbe b007 39bf ec48 5fbc
000002e0: 9562 eb3e 43b9 73bd 6eb2 8e3e 9840 46be
000002f0: d901 9f3e 36aa b8be 98eb cbbd a470 243f
00000300: 05ab 703e 0f85 4f3d 54ab 933e fd32 023f
00000310: 0faf b8be c7c1 513f 783e 19be 404d 3d3f
00000320: 21d1 363f f455 ab3e 3e05 053c 6ac3 c3be
00000330: 9243 333f ffa3 1c3e 18fd 93be 9f7e 52be
00000340: f4be 0fbe 3feb 9e3e e17b 903e c728 993e
00000350: 2ce6 0fbe aee4 e93e 3638 bd3c cf3b c93e
00000360: a207 d7be f17e 1abe 6255 753e bba0 693f
00000370: 60a8 12bd 31b4 8e3d 7610 b7bd 38fd 2bbe
00000380: 954f ea3e 4950 0b3f 2130 ed3e 4790 653e
00000390: 4a37 863e adcb 9a3c 8b59 853e 0b95 c6be
000003a0: 58fb 7c3e 5004 e63e 3c3d 833e 938a 54be
000003b0: 4143 f63e 3009 223f 400e 0b3f 74e0 c03e
000003c0: ba18 853e ef01 a1be dbe4 263e c9b5 ae3e
000003d0: 8f36 9b3e 902d 883d 8c87 093e ae16 aa3e
000003e0: 168d 613e 88d5 6e3e 9120 88be 6094 563f
000003f0: 4a53 82be e208 21bf 3719 12be 0114 303e
-0.27130473 0.25499985 -0.11025801 0.38227895 0.82731 -0.063472964 0.49267977 0.28017136
-0.16081232 0.04582367 0.46982566 0.6531802 0.558363 -0.2484647 0.49272406 0.5360563
0.40904078 0.07070699 0.062040724 0.06475978 0.05187173 0.500809 -0.15118408 0.09882815
-0.258594 0.17677066 -0.08478203 0.29278985 0.09401565 -0.6614034 0.2367679 -0.50949836
-0.0912881 0.02100628 -0.19810814 -0.077754356 0.047498547 0.5589748 0.65629464 -0.2827545
-0.20788403 -0.56480014 0.020337729 0.054622725 0.15995601 0.09896141 0.20138274 -0.1754921
-0.6596184 -0.3102349 0.47971937 -0.33194217 -0.25447676 0.031309996 0.19710468 0.17047656
0.8349146 0.09859958 -0.43417746 -0.15592505 0.40703455 -0.052870594 0.43969032 -0.22307609
-0.65820664 0.19212224 0.10873969 0.43035087 1.0521082 0.5555605 -0.026309304 -0.8003988
0.19134815 0.5114541 0.10077311 0.33266607 0.30376568 0.009084797 -0.38347322 0.23729384
-0.29555133 0.32466903 0.29805323 0.40008032 -0.2232668 -0.3050862 -0.55778617 0.13546062
-0.5348075 -0.5500506 -0.2183085 0.2941378 0.6373707 0.7773397 0.40249315 -0.093619436
0.23648041 0.06340156 0.03280697 0.36609396 0.2107948 -0.02412832 0.14807826 1.0135174
0.2932835 0.26363945 0.24982284 0.06079987 0.46633205 0.4339898 -0.021763919 -0.120732926
0.36723968 -0.16831055 0.20374647 -0.53576326 0.09370952 0.40144444 0.15698615 0.07372548
0.2800916 0.22014512 -0.53600067 0.6245163 -0.027741216 0.68521684 0.7155615 0.33825046
0.086495735 -0.17777821 0.74517614 0.104174465 -0.28434804 -0.15606849 -0.18384364 -0.002011573
0.28604123 -0.1433551 -0.4026743 0.3277015 -0.5358985 0.31389615 -0.4821199 -0.29633924
-0.15029827 0.7724507 0.017199427 0.15110393 0.47685802 0.0528326 0.098082595 0.1387328
0.84906757 0.13061854 0.39495414 -0.24267712 0.0832814 -0.29458278 0.48318475 0.89222276
0.5481337 0.42955983 0.5770409 0.48590595 0.3708086 0.05986678 0.075164355 -0.752045
-0.25830603 0.472444 0.2735203 0.46248737 -0.21260372 -0.0855658 -0.29172745 0.5947371
-0.15467401 -0.2275027 -0.38890812 0.6751503 0.4374167 -0.27964577 -0.72277355 -0.013628226
0.4597365 -0.05950285 0.27870506 -0.19360578 0.31056097 -0.3606736 -0.09957045 0.64234376
0.23502739 0.050664004 0.2884165 0.5085905 -0.3607106 0.81936306 -0.14965236 0.73946
0.71412855 0.33464015 0.008118926 -0.38235027 0.7002498 0.15296935 -0.28904033 -0.20556115
-0.14037687 0.31038854 0.28219512 0.29913923 -0.14052647 0.4568228 0.023098093 0.39303443
-0.4199801 -0.15087487 0.23958352 0.9126088 -0.035805106 0.069679625 -0.089386865 -0.16795814
0.4576384 0.5441938 0.46325782 0.22418319 0.26214057 0.018895948 0.26044878 -0.38785586
0.24705255 0.44925165 0.25632656 -0.20755987 0.48098186 0.6329527 0.5431862 0.37671244
0.25995427 -0.31446788 0.16298239 0.34123066 0.30315062 0.06649315 0.13430613 0.33220428
0.22026476 0.23323643 -0.26587346 0.8382015 -0.2545417 -0.6290418 -0.14267431 0.17195131

l1.bias f4 [8]
00000000: 9e57 293f 1beb 283f 723b 113f 042d 093f
00000010: 8e9d 6c3f a14c b83e 41d8 263f 2cb4 943e
0.6614932 0.6598374 0.5673133 0.53584313 0.9242791 0.35995963 0.6517373 0.2904371

l2.weight f4 [8, 8]
00000000: 1fb9 b13f cf2b 9ebf da3c 08bf b276 5b3e
00000010: 7bbb 923f 9328 3d3e 14ac 523f 4bd1 9a3f
00000020: 6d09 14be 0f92 bf3d 502c 87be 2f71 c5be
00000030: ca5e 213e 0999 92be 6b1d 99ba efa4 a33e
00000040: 0574 92bc fc6f 0f3e 2283 f33e a223 9e3f
00000050: 94d5 d8be 6cbb 9f3f 23e8 243f 3962 d23f
00000060: d832 583d 768b 9a3f d727 443f 02b5 7cbf
00000070: 6b46 973f 09d2 3bbf 2b0a 673e d8ca a7bf
00000080: 2713 7abf fca8 cbbe 1933 913f 8155 f5be
00000090: aede f1be 1fc0 113f 45ac 883f 4ee1 cc3e
000000a0: 57a3 c83e 3935 a33f d256 3fbf da36 823f
000000b0: c4de 463f 112e b13e 2a48 4bbe 1714 673e
000000c0: 40c5 adbb a04c 5ebc f71d 4abe 340e 8fbd
000000d0: 7d2a 66be c6e5 b1be 90be 98bc 7745 52be
000000e0: 53e9 e63e 478d 3d3f 8796 bf3e f65a 7a3f
000000f0: b811 9dbf a106 5c3f 796a 9dbe 8edd 963e
1.388462 -1.2357119 -0.5321785 0.21431997 1.1463464 0.18472509 0.8229382 1.2095121
-0.1445672 0.0935403 -0.26400995 -0.38562915 0.15758815 -0.28632382 -0.0011681741 0.31961772
-0.017877588 0.14007562 0.47560984 1.2354624 -0.42350447 1.2479072 0.6441671 1.6436225
0.052782863 1.207381 0.7662329 -0.98713696 1.1818365 -0.73367363 0.22562473 -1.3108778
-0.97685474 -0.39777362 1.1343719 -0.47916797 -0.47240204 0.5693378 1.0677572 0.40015644
0.39187118 1.2750617 -0.7474185 1.0172989 0.77683663 0.34605458 -0.19851747 0.22566257
-0.005303055 -0.0135680735 -0.19737993 -0.06985131 -0.22477145 -0.34745616 -0.018645555 -0.20534311
0.45099887 0.740437 0.3741953 0.97795045 -1.2271032 0.85947615 -0.30745295 0.29465908

l2.bias f4 [8]
00000000: b4ab f63e 4943 92be 710a 2abd 2123 673f
00000010: dca9 233f a205 ce3e 303d 04bd 102d 53be
0.48177874 -0.2856696 -0.041513864 0.9028798 0.6393106 0.40238672 -0.032284915 -0.20622659

l3.weight f4 [6, 8]
00000000: 3126 79bf 8acd 10be a7fc 233e 7e57 34bf
00000010: c5bc a5be 01aa a53e 50a2 a9bc 5894 743f
00000020: f93a 5d3f d1c5 32be b7a3 abbf e9e9 323e
00000030: ae0e 5abf f7cb 64bd a29e 6f3e 8421 80bf
00000040: 3ebc cf3e 5122 9e3e 88b7 8e3e bec3 a8bf
00000050: a6e5 1cbf a12b 0f3f 7f43 b13e 0a6a 1dbf
00000060: 90a1 48bf 778a 3b3d bf10 d1bd c5d0 233f
00000070: dd64 083f b9cb 77bf dda2 93be eeab 72bf
00000080: 33cb 5f3d 4e84 babc 3fd0 7b3e db95 a6bf
00000090: 166e 2b3f 46a7 96bf c6da 15be d9bb 813e
000000a0: ec2b a8bf 2de6 4abe d5ca 89bf 4679 723f
000000b0: 841e 8ebf 1a61 fb3e 86c0 3a3e 2079 47bf
-0.973239 -0.14140907 0.16014348 -0.70446 -0.32370582 0.32356265 -0.02070728 0.95538855
0.8641811 -0.17458273 -1.3409337 0.17472042 -0.8517865 -0.05585858 0.23400357 -1.0010228
0.40573305 0.30885556 0.27874398 -1.3184736 -0.61287916 0.5592595 0.34621808 -0.6148993
-0.78371525 0.045786347 -0.10208272 0.6399043 0.53278905 -0.9679523 -0.28835192 -0.94793594
0.054637145 -0.022768166 0.24591158 -1.3014482 0.6696485 -1.1769798 -0.14634237 0.2533863
-1.3138404 -0.19814368 -1.0765024 0.947163 -1.1103063 0.4909752 0.18237504 -0.779192

l3.bias f4 [6]
00000000: 420f 2e3d c191 a8bd 32f3 7ebe d217 0a3e
00000010: b90a e6be e14d 433e
0.04249502 -0.08230925 -0.24897459 0.13485649 -0.44930056 0.19072677
